…
_________________________________________________________________
activation_244 (Activation)  (None, None, None, 32)    0         
_________________________________________________________________
CBLOCK3_CONV128_0 (Conv2D)   (None, None, None, 128)   4224      
_________________________________________________________________
batch_normalization_167 (Bat (None, None, None, 128)   512       
_________________________________________________________________
activation_245 (Activation)  (None, None, None, 128)   0         
_________________________________________________________________
global_max_pooling2d_43 (Glo (None, 128)               0         
_________________________________________________________________
dense_127 (Dense)            (None, 256)               33024     
_________________________________________________________________
dropout_69 (Dropout)         (None, 256)               0         
_________________________________________________________________
dense_128 (Dense)            (None, 256)               65792     
_________________________________________________________________
dropout_70 (Dropout)         (None, 256)               0         
_________________________________________________________________
dense_129 (Dense)            (None, 10)                2570      
=================================================================
Total params: 122,874.0
Trainable params: 122,426.0
Non-trainable params: 448.0
_________________________________________________________________

[FCNLIB][2017-08-04 07:57:33] Training network for 10 epochs...
