…
_________________________________________________________________
activation_11 (Activation)   (None, None, None, 512)   0         
_________________________________________________________________
CBLOCK3_CONV512_1 (Conv2D)   (None, None, None, 512)   2359808   
_________________________________________________________________
batch_normalization_12 (Batc (None, None, None, 512)   2048      
_________________________________________________________________
activation_12 (Activation)   (None, None, None, 512)   0         
_________________________________________________________________
global_max_pooling2d_2 (Glob (None, 512)               0         
_________________________________________________________________
dense_4 (Dense)              (None, 512)               262656    
_________________________________________________________________
dropout_3 (Dropout)          (None, 512)               0         
_________________________________________________________________
dense_5 (Dense)              (None, 512)               262656    
_________________________________________________________________
dropout_4 (Dropout)          (None, 512)               0         
_________________________________________________________________
dense_6 (Dense)              (None, 10)                5130      
=================================================================
Total params: 3,255,530
Trainable params: 3,253,098
Non-trainable params: 2,432
_________________________________________________________________

[FCNLIB][2017-10-03 09:05:45] Training FCN (1/2)for 3 epochs...
