…
_________________________________________________________________
activation_21 (Activation)   (None, None, None, 512)   0         
_________________________________________________________________
CBLOCK3_CONV512_1 (Conv2D)   (None, None, None, 512)   2359808   
_________________________________________________________________
batch_normalization_22 (Batc (None, None, None, 512)   2048      
_________________________________________________________________
activation_22 (Activation)   (None, None, None, 512)   0         
_________________________________________________________________
global_max_pooling2d_3 (Glob (None, 512)               0         
_________________________________________________________________
dense_7 (Dense)              (None, 512)               262656    
_________________________________________________________________
dropout_5 (Dropout)          (None, 512)               0         
_________________________________________________________________
dense_8 (Dense)              (None, 512)               262656    
_________________________________________________________________
dropout_6 (Dropout)          (None, 512)               0         
_________________________________________________________________
dense_9 (Dense)              (None, 10)                5130      
=================================================================
Total params: 3,255,530.0
Trainable params: 3,253,098.0
Non-trainable params: 2,432.0
_________________________________________________________________

[FCNLIB][2017-09-01 17:16:08] Training FCN (1/6)for 3 epochs...
