…
_________________________________________________________________
activation_5 (Activation)    (None, None, None, 512)   0         
_________________________________________________________________
CBLOCK3_CONV512_1 (Conv2D)   (None, None, None, 512)   2359808   
_________________________________________________________________
batch_normalization_6 (Batch (None, None, None, 512)   2048      
_________________________________________________________________
activation_6 (Activation)    (None, None, None, 512)   0         
_________________________________________________________________
global_max_pooling2d_1 (Glob (None, 512)               0         
_________________________________________________________________
dense_1 (Dense)              (None, 512)               262656    
_________________________________________________________________
dropout_1 (Dropout)          (None, 512)               0         
_________________________________________________________________
dense_2 (Dense)              (None, 512)               262656    
_________________________________________________________________
dropout_2 (Dropout)          (None, 512)               0         
_________________________________________________________________
dense_3 (Dense)              (None, 10)                5130      
=================================================================
Total params: 3,255,530.0
Trainable params: 3,253,098.0
Non-trainable params: 2,432.0
_________________________________________________________________

[FCNLIB][2017-10-04 22:12:42] Training FCN (1/1)for 20 epochs...
